model_lstm.pt (torch, 75513 bytes, 6 tensors)

lstm.weight_ih_l0 f4 [256, 4]
00000000: 1e98 c73d fc9c 9c3c 3180 2e3e 9368 0b3e
00000010: 03d0 03be 0e7b 10be 2ce0 b6bd 456b 0cbe
00000020: 64ca d1bd 0329 19bd 41f9 91ba 149c c4bc
00000030: a21d 823c d0e1 bf3c ff28 0cbe f841 693d
00000040: ca3e 693d d461 463d 7fe7 e2bc 8b7c a03d
00000050: 8743 f33d a13a 5d3d 0e10 5f3d 1e45 173e
00000060: 0576 95bd 9e10 a9bd e517 423e ebb4 deb9
00000070: 85f2 b1bc 0145 993c 2f94 c83d ff6e c7bc
00000080: 2860 2cbc 79ea b13d 3f89 1d3e 1909 b43d
00000090: b869 f53d c490 f33d 3413 e73d c49b c1bc
000000a0: e2c1 fcbc 9665 a23d 78ae 69be 15ff 05bd
000000b0: 4ef9 fc3d 2f06 1bbd c648 dfbc b356 e93d
000000c0: aed2 2ebd f081 cc3c d07a 953d 6398 023e
000000d0: 5022 1f3d 2311 343e 7f4d edbd 89ce 7b3d
000000e0: 644e c93c 7e11 5fbd 7256 2d3e fe90 773d
000000f0: b549 5d3d 7209 14bb 37f8 9c3c 37d5 093c
00000100: 244e cbbb 042b 0ebd eba4 4e3b fa42 313e
00000110: b581 af3b ee19 213d f9ff 1d3d 617a 4a3c
00000120: 7c2f 863d e6a4 523d 4627 80bd fd8a 93bd
00000130: bcc8 783d b945 2b3e 2f3d 943c 32f5 1a3e
00000140: 7d74 6bbd 7225 943d ae40 18bd 6954 b43c
00000150: 888f 5d3d cf45 0dbd cac6 313e 0f69 82bb
00000160: 68d8 1ebd f7d8 39bb 5f0f 6b3d 5a37 8a3c
00000170: 259a 803b 5098 d0bc d101 673d 0c02 173e
00000180: 14d3 f1bd 483d 9c3d 855b 83bb 0d8c 1a3c
00000190: 4ae9 d9bb 4f5c b53c bd3a fc3d a1fe f63d
000001a0: b96d 7d3d 7747 20bc cd25 dabc 0130 d73c
000001b0: 6e31 8b3d 210f 4cbd 9d41 843d 26f8 a13d
000001c0: 637e c73b 6c26 723d 78d0 bcbd 8e17 1abd
000001d0: d90e b93d fe64 ad3d 785e 2fbd f13f ed3c
000001e0: dcdd dc3d f1d8 393d 5ebe 81bd 0115 d0bd
000001f0: ebdb 8d3d 9f0f e0bd 9900 953c 7e2e f33d
00000200: c302 0f3b 5bc5 fcbc c8cb 97bb 5cdd cdbc
00000210: a52a f1bd 6b3e 8fbb 584c 313d 4b8d ab3b
00000220: 05f7 523d 5cd4 dd3c 764f a83c 368a 853d
00000230: 1dd8 493d de37 f23d 52cc f53c da45 8a3d
00000240: 5b5d be3d dcdc babd a2c0 c3bc 1494 ea3d
00000250: e50a c93b 8229 f13d ec62 7fbd 4040 98bd
00000260: 178f 933c c6c3 15bd 0b20 3f3c 4169 56bd
00000270: ce10 913c 0f44 313d ddb3 1dbe f27b 82bd
00000280: ec19 a7bd ccb5 c4bb ced2 2a3e 8c91 b9bc
00000290: ba04 ee3d b9de 483c 9777 a53a 9307 113d
000002a0: 5608 77bd 8db5 143d eb40 993d b579 343e
000002b0: 5c3d f0bd 03e4 9cbd c400 ab3d dfeb d7bd
000002c0: 43ea 60bd f094 e7bd 779d 3ebd 60cc ae3d
000002d0: 66ab d53c bbd3 923d 397d 333e 96c0 953c
000002e0: 0b84 9ebd 8729 b1bc d43f 1d3d 9e85 eabd
000002f0: 9600 933d 40ae 583c 244d 843d 005f fb3d
00000300: 8c26 a93c 1244 ce3d ea6d ac3c 14cf c23d
00000310: f5e2 033c de2d 5fbd e756 43be 79ce 81bd
00000320: 7547 d8bd c05a e33d f71a 103e 2297 6bbd
00000330: ac40 103e 7800 623d 9a69 403e 5190 553d
00000340: b331 01bd a1f0 853d 1be9 0f3d b14b 83bd
00000350: 3f1e 943d 8ce1 f2bc ebed b1bc a19f bb3d
00000360: 7e0e cf3d 4502 a7bc 64dd 563e 478c 2b3e
00000370: e521 5e3d e9d5 c43d bd8e 16bc 7c42 f73d
00000380: 5108 133e b2a6 f0bb df84 373d 5f8d d53d
00000390: 5b92 84bd dda2 b53d e245 0dbe f203 fbbd
000003a0: 5021 043e 63d8 bdbd 9660 5fbc c0d2 d6bc
000003b0: 5871 aebd 10cd 3ebd 83ed ef3d b610 e73d
000003c0: fe47 ac3d cb62 603d c54d 6a3d d8ef 993d
000003d0: f625 babd 6949 8a3b c89e ad3d 6825 e5bd
000003e0: be80 6a3d 06f1 6fba cec8 2a3e d102 b5bb
000003f0: bac5 f2bd b79c c43a 48b0 d7bc 96be ea3d
0.09745811 0.019117825 0.17041089 0.1361411 -0.12872319 -0.14109442 -0.08929476 -0.13712795
-0.10243681 -0.037392627 -0.0011136906 -0.024000205 0.01588327 0.023423105 -0.13687514 0.05694768
0.056944646 0.04843314 -0.027698277 0.07836255 0.11878114 0.05401099 0.05445867 0.1477246
-0.07297901 -0.082551226 0.18954428 -0.00042477934 -0.021722088 0.018709661 0.09793889 -0.02434492
-0.010520972 0.086873 0.15384386 0.08790798 0.11983055 0.11892846 0.112829596 -0.023633845
-0.03085417 0.07929532 -0.22820461 -0.03271397 0.123522386 -0.037847694 -0.02725638 0.1139349
-0.04268139 0.024964303 0.07298815 0.12753443 0.038851082 0.17584662 -0.11587047 0.061476264
0.024573512 -0.05446004 0.16927508 0.06044101 0.05402537 -0.0022588638 0.019161327 0.008412651
-0.0062043834 -0.03470899 0.0031531404 0.17310706 0.0053560385 0.03933137 0.038574193 0.012358279
0.06552026 0.05142679 -0.06257491 -0.07204244 0.06073831 0.16725816 0.01809558 0.15132597
-0.05748414 0.072337046 -0.03717106 0.022012906 0.05409196 -0.034490403 0.17360988 -0.003979809
-0.0387806 -0.002835808 0.057387706 0.016872097 0.0039246255 -0.025463253 0.056398217 0.14746875
-0.11807838 0.07628876 -0.0040087127 0.009432805 -0.0066501247 0.022138743 0.12315891 0.12060285
0.061872218 -0.009782664 -0.026629353 0.026268007 0.06796537 -0.049819116 0.06457827 0.07908659
0.0060880645 0.059118673 -0.0921945 -0.03762012 0.09036035 0.08466528 -0.0428147 0.028961154
0.10784504 0.045372907 -0.06335138 -0.10160256 0.06926712 -0.109404795 0.018188762 0.11874102
0.0021821714 -0.030855825 -0.004632447 -0.025129966 -0.11775712 -0.0043714545 0.043285698 0.0052353493
0.051505107 0.0270788 0.020545702 0.06520502 0.049278367 0.11827062 0.030004654 0.067516044
0.0929515 -0.09124157 -0.023895565 0.11454025 0.006135332 0.11775495 -0.0623502 -0.0743413
0.018012566 -0.036563657 0.0116653545 -0.05234647 0.017708208 0.043277796 -0.15400644 -0.06371297
-0.08159241 -0.006003117 0.16681978 -0.02265241 0.11621995 0.0122601325 0.0012624142 0.035407614
-0.060310684 0.036305953 0.07483085 0.17624553 -0.11730453 -0.07660677 0.083497554 -0.10543036
-0.05491091 -0.113077044 -0.04653689 0.08535075 0.026082706 0.07169291 0.17528237 0.018280309
-0.07740029 -0.021626247 0.03839095 -0.11451267 0.07177846 0.013225138 0.06460026 0.12273979
0.020648263 0.10071577 0.021048505 0.09512153 0.008049716 -0.0544871 -0.1907612 -0.0633821
-0.10560504 0.111012936 0.14072786 -0.05751718 0.1408717 0.05517623 0.18790284 0.052139584
-0.031541537 0.06540037 0.035134416 -0.06410921 0.072323315 -0.029648565 -0.021719893 0.09161306
0.10110186 -0.020386824 0.20982891 0.1675273 0.054231543 0.096111126 -0.009189305 0.12073228
0.14358641 -0.0073440904 0.04480445 0.10427355 -0.064732276 0.08868954 -0.1379619 -0.12256612
0.12903333 -0.09269788 -0.013633868 -0.02622354 -0.08517712 -0.04658228 0.11715224 0.11282484
0.08412169 0.054781716 0.057203073 0.0751645 -0.09089272 0.004220177 0.08477551 -0.11188775
0.057251684 -0.0009153042 0.16678163 -0.0055240174 -0.118541196 0.0015000318 -0.026329175 0.11462133

lstm.weight_hh_l0 f4 [256, 64]
00000000: afb1 09bd 9d70 9c3d 88e0 68bd 7927 1ebd
00000010: ca05 59bd 32cd fabb c41c afbd 731c 863d
00000020: d3c5 20bd bc55 89bc bb51 bbbd d88d 24bd
00000030: e80e b73d 22a9 0c3e 876c 37bb 3192 033e
00000040: c0b5 9abd 7276 84bb 8ccc b83d b89a 543d
00000050: 30f3 acbd 7277 d5bc dc0e 1bbb e87b 0e3e
00000060: 415c fabc ef9c eabd 6845 d83c bfc5 92bc
00000070: 03a5 863a 5283 1ebe f64f de3d f983 29bd
00000080: d490 2d3e b3b5 b5bc b2ef 2dbe 4488 b0bd
00000090: b535 c1bd 528f 19be fb2f 2e3e 0cf2 10be
000000a0: 0e78 be3c f739 05bc 15a9 573c e727 403d
000000b0: 8a87 14be 6e21 e5bd 863c 4b3d c3ef db3d
000000c0: 8a62 263e 2ed2 2b3d d990 47bd c18c 4c3d
000000d0: 7ce2 813d d988 b53d f603 3ebc 96cf 5cbd
000000e0: 1ee2 1f3e 5df1 27bc 89d7 a8bd 9f34 03bd
000000f0: 8e3b b73c 226b 0bbd f9fd 79bd 5c0d c43c
00000100: 0dfd 083d 4500 4a3d 1bbe a13d 39ca fa3d
00000110: 3963 88bd c6a0 5a3d 91bd cbbd dfdf 90bc
00000120: 3b4d 233d 20ae c3bd ebf4 e8bc c60f af3d
00000130: 28d5 bf3d 7533 56bd e093 343d 333d 8e3d
00000140: dc0f 103d c9d5 5e3d b516 ff3d 7657 55bd
00000150: a2b6 9dbd 78e9 d73d 3078 59bd fa19 c63c
00000160: 5fb1 2a3d d822 47bd 78f5 583d 555b b23c
00000170: b4bb afbc f05a 3ebd c013 973d c3f6 683d
00000180: 0498 b4bd 12d6 61bd 7c4a 123e b6c9 a23d
00000190: 4e14 47bd 774e e8bd 33e1 9ebd a7a5 553d
000001a0: 97cf 0bbe 969a b03d 129f 0d3e c3ac db3d
000001b0: ad4a d53d 2d5b 223d 48e0 293d 084f 213c
000001c0: 9cc4 b7bd 06fc 5bbd 312b c53d bc05 9c3d
000001d0: 62b9 bd3d 7b8c 7dbd e164 5fbc 3816 9a3d
000001e0: 194f b13d db56 143e e025 953d 4d2b a43d
000001f0: 39af 823d f7a7 89bd 1883 04be 058e 253c
00000200: 7d36 043d 436a 4cbc a2ea 8dbd a8e5 033e
00000210: 6c99 acbc 2b33 e6bb ce57 01bd 49a1 83bd
00000220: 8399 c43d ad98 903d 8917 96bd 3c7a 043d
00000230: 0329 6abd 2894 13bd 4ffd c43d 9b04 00bd
00000240: d9e1 0b3d abd9 60bd ef8a 8fbd df2d 5a3c
00000250: 8aac 4a3d 38aa 713d 64ca 80bd 2b41 87bc
00000260: aa84 9d3d eed7 943d e946 c93c b949 023c
00000270: 6dce ffbc bc9a 7bbd 2d0c 2abd 5a63 2fbc
00000280: db22 9dbd 044c d7bb b39b 09bc f098 c7bd
00000290: 8604 1b3d 9566 d23d 19dd 9dbd 3cd7 36bc
000002a0: 5aa6 50bd d3a2 013e d977 b8bd eb04 a1bd
000002b0: 0c5e c23d 868e bbbd a531 ecbb a0a0 2f3c
000002c0: afab 913d a049 bc3d 7713 a4bd 7a45 b5bd
000002d0: fdbd 33bd c5e8 343d 7848 2f3d 4d74 a5bd
000002e0: 4dd6 edbb dd56 5cbd 013a 533d d104 653d
000002f0: 4d5c 003e 4558 023e a015 ad3c 1592 b0bd
00000300: d57c 073e a8e8 ad3d ee5a 403d 7875 cb3c
00000310: 9341 cabc 9074 b8bd 7cda 1cbe ba23 63bd
00000320: 81d1 ca3b 1428 6f3d a832 b9bb 07bb 14be
00000330: 8e56 73bd b5ba 013d d41e 9fbc 768c 873d
00000340: 4674 83bd b699 a33d f99e 1fbe 8fce f33d
00000350: ec43 06bd abb9 a63d ba49 26bd 052f cd3d
00000360: 00b2 b03d 3205 a6bd 2b01 a73d b418 a6bd
00000370: 488a 20be 27d5 633d c7eb c73d 529c b83d
00000380: e75b a23d ef4e c7bd 650c ae3d 635a 31bd
00000390: 7e3e 923d 4257 ccbd 324b 8a3d 5d4a 05be
000003a0: f91c 44bb d88d cf3d 6e32 553d 6875 3a3d
000003b0: f913 51bc 51b8 05be 2d54 383d 2102 87bd
000003c0: cd2b c0bc 1be7 85bd e347 e23d 34da af3d
000003d0: 037c 9a3c f535 24bd d09b 02be a109 0ebc
000003e0: 19c1 b0bc e0b6 213d bc58 fe3c 18f9 9b3c
000003f0: 7cbe 833d 2280 8ebd b4fb ec3c 546f 29bd
-0.033616718 0.07638667 -0.056854755 -0.038611863 -0.052984037 -0.0076538557 -0.085504085 0.06548395
-0.03925116 -0.016764514 -0.09146448 -0.040174335 0.0893839 0.13736394 -0.0027988271 0.12848736
-0.07554197 -0.00404244 0.09023389 0.051905364 -0.08444822 -0.026057933 -0.002365998 0.13914454
-0.030561568 -0.11455714 0.026400283 -0.017916558 0.0010272566 -0.15479782 0.10855095 -0.041385625
0.16949779 -0.022181368 -0.16985968 -0.086197406 -0.09434072 -0.14996079 0.1701049 -0.14154834
0.023250606 -0.008131496 0.013162871 0.046913054 -0.14504829 -0.11188017 0.049618267 0.1073909
0.16248527 0.04194849 -0.048722122 0.04993892 0.063420266 0.08863992 -0.011597624 -0.053908907
0.156136 -0.010250417 -0.08244235 -0.032032605 0.022367265 -0.034037717 -0.061033223 0.023932151
0.033444453 0.049316663 0.07897588 0.12245602 -0.0665955 0.05337598 -0.09948266 -0.017684875
0.039868575 -0.09554696 -0.028437098 0.085479304 0.09366828 -0.052295167 0.044086337 0.069452666
0.035171375 0.0544031 0.12455503 -0.052085362 -0.0770085 0.105425775 -0.053093135 0.024182308
0.04167306 -0.048617214 0.052968472 0.021772066 -0.021451809 -0.046473444 0.07376814 0.056875955
-0.08818057 -0.055135794 0.14286226 0.079486296 -0.04860335 -0.11343091 -0.07757797 0.05215993
-0.13653408 0.08623235 0.13830212 0.10726311 0.10414634 0.039637733 0.041473657 0.009845503
-0.08973047 -0.053707145 0.09627379 0.07618281 0.092638746 -0.06190155 -0.013634891 0.07523769
0.08657665 0.14486258 0.07282615 0.080160715 0.06381077 -0.0672149 -0.12940633 0.010104661
0.032278527 -0.012476507 -0.06929518 0.12880576 -0.021069251 -0.0070251427 -0.031577878 -0.06427247
0.095995925 0.070603706 -0.07328708 0.032343134 -0.057168018 -0.036029965 0.09618627 -0.031254392
0.034150932 -0.054895084 -0.07008921 0.013316601 0.049480952 0.059000224 -0.06288603 -0.016510567
0.07691319 0.07267748 0.024569945 0.007952147 -0.031226361 -0.061426863 -0.041515518 -0.01070484
-0.07672664 -0.006570341 -0.008398938 -0.097459674 0.03784611 0.10273472 -0.07708187 -0.011159714
-0.050939895 0.12659769 -0.09007234 -0.07862266 0.09490594 -0.091580436 -0.0072080665 0.010719448
0.07112824 0.0919373 -0.08011525 -0.08851142 -0.04388236 0.0441673 0.04279372 -0.08078823
-0.0072582127 -0.053793777 0.05156899 0.055912796 0.1253521 0.12728985 0.021128476 -0.08621613
0.13231213 0.08491641 0.046961717 0.024836287 -0.024689471 -0.090066075 -0.1531772 -0.055453993
0.0061895256 0.05838783 -0.0056517906 -0.1452447 -0.059408717 0.0316722 -0.01942388 0.06618588
-0.06418662 0.079883024 -0.15587987 0.11904632 -0.03277962 0.08140882 -0.040597655 0.10018734
0.08627701 -0.0810646 0.0815452 -0.081101805 -0.1567775 0.0556232 0.09761768 0.09014191
0.07927685 -0.09731852 0.08498458 -0.04329909 0.07140826 -0.099775806 0.067526236 -0.13016649
-0.0029924496 0.101344764 0.052050047 0.045522124 -0.0127611095 -0.13058592 0.04500215 -0.06592203
-0.023458386 -0.065382205 0.110488676 0.08586541 0.018857962 -0.04009052 -0.1275475 -0.008669288
-0.021576451 0.039481044 0.031048171 0.019039676 0.064328164 -0.06958033 0.028928615 -0.041365936

lstm.bias_ih_l0 f4 [256]
00000000: 391b 0cbd c478 e33c b269 e7bd f2a6 fc3d
00000010: 9a9c 373e 16a3 30bd 310e b9bd c0f2 283d
00000020: 36be bb3d b2d8 1a3d 7499 e53d 263f 53bc
00000030: 2e63 56bd 8f8f 07bd 864e 69bd 9d3f fb3c
00000040: 339b 023e 608c 33bd ba30 1a3e 750d a73d
00000050: 8255 43bd e3fa b0bc 7dea b3bd ba42 1b3c
00000060: 283f eb3b 2d32 f93d 4381 bcbc ee4e 1cbd
00000070: 903b ea3d 52a2 f53d 09b4 8bbd 3887 fb3d
00000080: 8e88 243e 365a 193c 1780 1d3d 4329 fb3d
00000090: b28f 9fbd c952 193d b55e 1e3d b3cc 543d
000000a0: 6c52 dabc 81ac 213e 9990 1c3e 601b 813c
000000b0: cab7 56bc c364 f83b 18a9 e93b e796 af3c
000000c0: a251 c2bd f211 debd 43ad 30bd 6ed3 5bbd
000000d0: 7b5f a6bd 450b f53d 49e8 fb3b 77ec a83d
000000e0: 21b5 f8bc 23dd 51bc 213b df3c 6ff0 f13d
000000f0: 012f d53d 01d1 f9bc 98ff c8bb e62f 77bd
00000100: 1b90 ae3c 7a8b 7f3c d519 bf3d 6104 eebb
00000110: 4dcb 9b3d 3a57 933d 4f11 45bd 2cb2 bd3d
00000120: 5da6 b2bd 2ae2 c53d 41bf d93d 0467 253e
00000130: 48eb dd3d c0ee ef3d 2385 9abd 33f9 ec3d
00000140: 4289 d4bc 0050 23bd 731b 4a3d 42e7 48bd
00000150: 6444 053e 7c87 96bb a4a2 6b3d dce7 efbd
00000160: d14f 9dbc 27db 383d 5048 633d e57b 98bb
00000170: 646c 283d f7a3 46bc cc5c 93bb e3ed f53d
00000180: d354 723b 58a3 973d 7927 083e c296 783c
00000190: 8996 8c3c 7121 633c e720 013e 0d60 b1bd
000001a0: 2d56 c43d f7a1 61bd 118e 06bc 48d1 1ebd
000001b0: 3e2d c2bd c7e0 b03d 6245 ed3c bd25 df3d
000001c0: 1359 143a 6855 20b8 8461 6a3c a10b 853c
000001d0: 3c02 da3d 02ac 9fbd af4c bc3d 7062 473d
000001e0: bea8 b4bd 5322 bcbd c124 e7bc 2101 953d
000001f0: b57d 9fbd 4618 b33c 69a0 43bd fe76 aa3c
00000200: 253f 38bd edf5 8abd 5dc0 32bd b3ca b2bd
00000210: 9767 c0bc 6576 14bc 5ea2 d9bd 7c2f a53c
00000220: fbba 98bd 8854 a63d c27c b03d ce03 d9bd
00000230: 4d03 c8bc 9bef d23d 6643 fcbd 7d4a ba3d
00000240: 509c 8f3d eb54 903d 6a9c f2bd bd36 4bbd
00000250: 4c20 873d 3a78 e5bd d379 9b3c 4a57 d53d
00000260: c035 dbbb 6ea2 8b3d 7b69 0abe 33d2 7cbd
00000270: 81ad 133d 47df 8c3c 7c0e 903d 9cf1 873d
00000280: 2ed8 a2bd 037d c03b a561 033c b4b5 a43d
00000290: 2f2a 66bc 25cb d8bd d701 c43d e74e 00be
000002a0: 2196 b63d 2cfe f63d 84c6 9abb a889 cebd
000002b0: fb53 96bd 05c9 1cbd 1177 bf3d cf97 34bd
000002c0: 6909 113e 1b42 65bd a81a cebc ecb3 d43b
000002d0: b5e4 cd3d bbd3 013e d5d8 ef3d 5472 b53c
000002e0: eb39 68bd ca81 03be 3bfa 00bd 47e7 5a3d
000002f0: e067 ae3d 1e1b 73ba 0d8f b13d fd15 cebd
00000300: 1264 66bc 1e54 0abe 6286 91bd e06e adbd
00000310: 338e 343c a582 c8bd 116f 7a3d ba86 c6bd
00000320: d675 cabc a759 18bd b7e3 ca3b 20a4 26bd
00000330: 7533 253d d9d8 073e cab1 c43c 2e04 8dbd
00000340: bd8a 83bd 7c16 ef3c 0e13 0c3e d9db 083e
00000350: babf cdbd f7ae f5bc bbc8 933d 98ca 0bbd
00000360: c1fd 033d 0af5 903d a202 70bd 8a3a e1bc
00000370: 6d31 3ebc 63b5 903b 9424 df3d 0363 e5bd
00000380: ac94 233e 59ca cfbd c613 d6bd 4b19 1e3e
00000390: 0844 063d 92ea 033e 570a 94bd 89e7 b83b
000003a0: cb33 aa3d 3f66 743d 5ede 863d 24ce 18be
000003b0: d0ea d6bd 975a 85bd 059b 1bbd c98b 58bd
000003c0: 029e cbbd 6ed4 e13d af53 d5bc bc47 d03d
000003d0: d2b7 e43d 3e76 dc3d 73a3 f5bc 3812 923d
000003e0: f847 1e3e a168 0bbd 2c2f e1bd 54d9 cabd
000003f0: 540a a5bd c2e8 e1bb aef4 afbc 25a2 803c
-0.03420565 0.027767546 -0.11299457 0.1233653 0.17930833 -0.04312428 -0.0903591 0.04124713
0.09167139 0.037804313 0.112109095 -0.012893474 -0.05234068 -0.033095893 -0.05695965 0.030669982
0.12754516 -0.043835044 0.1505765 0.081568636 -0.04768897 -0.021604007 -0.087849595 0.009476358
0.0071791597 0.121677734 -0.023010856 -0.03816121 0.11437142 0.11993851 -0.06821448 0.1228165
0.16067716 0.009359887 0.038452234 0.122637294 -0.077910796 0.037432466 0.03866454 0.05195303
-0.02665063 0.15788461 0.15289535 0.015760124 -0.013105342 0.007580371 0.0071307532 0.02143426
-0.094882265 -0.108432665 -0.043133985 -0.053668432 -0.0812368 0.1196504 0.0076876027 0.08248227
-0.030359806 -0.012809071 0.027249875 0.11813437 0.10409356 -0.030495169 -0.006133985 -0.060348414
0.02130895 0.015597219 0.09331099 -0.0072637056 0.07607136 0.071943715 -0.04811221 0.09262499
-0.087231375 0.09662278 0.10632182 0.16152579 0.10835892 0.1171546 -0.07544925 0.115709685
-0.025944356 -0.039871216 0.049342584 -0.04904867 0.1301437 -0.0045937877 0.057528153 -0.117141455
-0.019203098 0.045130875 0.055488884 -0.0046534413 0.041118994 -0.012124053 -0.0044971462 0.12008264
0.0036976829 0.07404202 0.13296308 0.015172662 0.017161625 0.0138629535 0.12610207 -0.08660898
0.09586749 -0.055086102 -0.008212582 -0.038773805 -0.094812855 0.08636623 0.028963748 0.1089587
0.0005659025 -3.8226513e-05 0.014305476 0.016240897 0.106449574 -0.0779648 0.09194314 0.04867786
-0.088212475 -0.09186234 -0.028215768 0.07275606 -0.077876486 0.02186216 -0.0477604 0.020808693
-0.044982094 -0.06785188 -0.043640483 -0.08730068 -0.023486895 -0.009061431 -0.10626672 0.020164244
-0.07457539 0.08121592 0.08617546 -0.10596429 -0.024415636 0.10299607 -0.12317543 0.09096239
0.07012236 0.07047447 -0.1184624 -0.04961275 0.06597957 -0.11204572 0.018978989 0.1041704
-0.006689757 0.068180904 -0.135168 -0.0617239 0.036054138 0.01719631 0.07034013 0.0663788
-0.07951389 0.0058742776 0.008018886 0.080424696 -0.014048143 -0.10585622 0.095706634 -0.12530099
0.089153536 0.12060198 -0.004723372 -0.100848496 -0.07340237 -0.038277645 0.09348882 -0.04409009
0.14163746 -0.055971246 -0.025159195 0.006491175 0.10053388 0.12678425 0.11711279 0.022149242
-0.05669586 -0.1284248 -0.03148864 0.05344322 0.08515906 -0.0009273755 0.08669863 -0.10062788
-0.014061945 -0.1350865 -0.071057096 -0.08468413 0.011020231 -0.097905435 0.061141077 -0.09693666
-0.024714392 -0.037194874 0.0061916965 -0.040683866 0.040332276 0.13266315 0.024010558 -0.06885563
-0.064229466 0.029185526 0.13679144 0.13365115 -0.100463346 -0.029990656 0.07216021 -0.034128755
0.03222442 0.070779875 -0.05859626 -0.027493734 -0.011608464 0.004416154 0.108956486 -0.112005256
0.15974683 -0.10146017 -0.1045299 0.15439336 0.032779723 0.1288245 -0.07228535 0.0056428355
0.0831066 0.059667822 0.06585382 -0.14922386 -0.10494006 -0.06511419 -0.037989635 -0.052867685
-0.09942247 0.11026846 -0.02604088 0.10169932 0.111678734 0.107647404 -0.029985165 0.07132381
0.15457141 -0.03403533 -0.109953254 -0.09904733 -0.080586106 -0.006894202 -0.021478977 0.015702317

lstm.bias_hh_l0 f4 [256]
00000000: cb20 90bd 322a 02be 1fec ca3d 1188 ba3d
00000010: 90c8 9b3d e817 a63d 0463 91bd 7aec 4cbd
00000020: e1c3 9f3d 5ed7 8a3d 76ce f23d 834c a5bd
00000030: a2b5 0fbd 0d85 243e 7ee3 4ebd 3ffd 1e3d
00000040: b9ee cdbc 9fd5 053e 91a6 b93d 4497 5a3d
00000050: 8d80 3c3c fbe1 4ebc baba b93c d23d e3bc
00000060: 1736 d7bd 75bc 9c3d 1c62 1abb e051 f73d
00000070: 0794 68bd 10d1 bf3d 202d aabc 39a1 7c3c
00000080: aa0e b13c ffa1 dfbd 3af6 a5bd 9280 5fbd
00000090: f38c fd3d 7ae0 4b39 6c43 403d 2a88 1fbc
000000a0: 51c9 fd3c 9401 063d 0de8 013e 0c31 ddbd
000000b0: ae55 e43d c31d e33d d876 f1bd 373a d83c
000000c0: 7d9c 9c3b ea50 b2bd 41e7 e3bd 3b82 8cbc
000000d0: 1d30 38bc 0ded ae3d b892 f03d 8358 59bd
000000e0: e578 d9bc 5579 9d3d 64df ba3d 958f 053c
000000f0: 39f6 a13d c1e4 8d3d 13b0 1abc cf9b eebc
00000100: b303 9bbd 8135 febd 6959 e8bd 094d 223e
00000110: 5e60 6dbd 0011 e83d 2398 c93d bd64 013c
00000120: 802f da3d b83f c5bd d213 f53c 297d fc3c
00000130: 7fbc 0e3d 7e8f 7abd 023f 063e 9db0 c6bd
00000140: 66be fe3d 18c0 073c 8191 fa3d 58c7 3a3e
00000150: 2136 b7bd d6e9 d33d 7620 9a3d 8cb9 b33d
00000160: c255 803d 0fad b33d f0fd 95bd 4d15 0e3e
00000170: f367 8d3c 7e24 d1bd c092 093c df32 c8ba
00000180: b2ad c6bc e940 7e3b ae32 9fbc a42c 423d
00000190: 15fe a23d a431 b3bd f986 043d ca0a 1fbc
000001a0: 9e65 493c cd77 a83c 717f 063d b724 06bd
000001b0: 24c4 bcbd 6309 c7bc 9b2d f5bc 8ad1 453d
000001c0: 6c78 91bc c192 123d a524 8b3d 8d97 dabb
000001d0: 2c20 5d3d bfde a7bc d784 41bd 35da 94bd
000001e0: 4e20 8cbd 1e26 853d 3a46 3f3c f4be 8d3d
000001f0: 272e 233d 0bf8 eebd c67e 0d3d b14a 9b3d
00000200: 94de bebc 28ab 943d 0979 d6bd 32cb 953d
00000210: 701d b0bd f1d7 dcbc 0ab7 ba3d 0ecd ccbb
00000220: abd0 b33d 98b9 cf3c 3f49 c93b 668a aabd
00000230: 66bf 213d a81f 5bbd 328f a03d b805 43bc
00000240: 51fe 67bd 849f 91ba b19f 9cbd 456a 353d
00000250: b839 4cbc bdb0 c53c 19dc aebd 0759 6c3c
00000260: 90a7 a03d 5638 b9bd 3aba b2bd d682 25bd
00000270: 589f 02be d93b dfbd 08b3 41bc 1f56 6cbd
00000280: de93 ca3d fa9b 1d3d cb8f 88bd f434 fd3c
00000290: 0608 bcbd 2750 eb3d f539 c4bd b6c3 823b
000002a0: 530e bebd cb0a 393c 71e3 7dbd 2fe1 b53d
000002b0: 9f5c f4bd d94d 853d fdd0 773d d5c0 a03d
000002c0: 25be c53d c220 03be c722 b93c 93e3 d93c
000002d0: ace8 9fbd 50fc b7b9 f8ec f0bd e118 16bd
000002e0: 2cab 583d 10d5 e13b 6c08 823d 4d7c f8bd
000002f0: 0919 d3bc 0ba5 ecbd d208 f73d cb6d 643d
00000300: ddda bd3d 3e1a b5bd a6a8 bc3d 840e 7d3d
00000310: 543a 1d3e 477c 663d b50d 2ebd 32d8 8b3c
00000320: 6da7 7e3c 1ac9 a83d 62a6 c93d f1db c9bc
00000330: de7b 2c3c 5dd7 b03d d973 fa3d a995 ed3d
00000340: d7e7 1c3d 50ed 8ebd 4c58 123e 258c cc3d
00000350: 43a1 87bb fd61 943c f5fd fbbc b72b 133d
00000360: e0cf 23bc c0de b73d cfe3 bf3c feea 883d
00000370: d22b 803a c1f7 acbd c0e3 0f3e c3af 83bd
00000380: 5c05 a6bd 154c be3d 91e6 fabb 5f40 893d
00000390: 7755 efbd 29ce 303d 3b37 b0bd 0f66 033e
000003a0: b134 98bd f889 3c3d e626 0abd 4d6b 763d
000003b0: 6f5e 91bc 7398 dbbb 430d e6bd fced 513c
000003c0: 1d7f 023e 2bab 4fbd 51ad 6dbd 6f73 293b
000003d0: 9bbd 073c 5eef aabb 528c 83bd 742b b7bd
000003e0: 3c79 db3c 166a b8bd 64bc d93d 4676 bf3d
000003f0: da93 8a3a 846e 9fbd 6123 44bd 4304 393d
-0.07037505 -0.12711409 0.09908318 0.09107984 0.07606614 0.081100285 -0.07098964 -0.05003021
0.07801033 0.06779359 0.118557855 -0.08071234 -0.035085328 0.1606638 -0.050509922 0.038815733
-0.025138246 0.13069771 0.09064973 0.053366914 0.011505258 -0.01262712 0.022672046 -0.02773944
-0.10508364 0.07653133 -0.0023557013 0.12076163 -0.056781795 0.093660474 -0.02077347 0.015419298
0.021613438 -0.1091957 -0.081036046 -0.054565974 0.123803996 0.00019443213 0.0469393 -0.009737054
0.030979784 0.03271635 0.12686177 -0.108003706 0.111491546 0.11089661 -0.11790246 0.026394947
0.004779397 -0.087068394 -0.111280926 -0.017151942 -0.01124194 0.085413076 0.117467344 -0.053062927
-0.026546905 0.07689158 0.0912464 0.008151908 0.07908291 0.06928397 -0.009441393 -0.02912703
-0.07569065 -0.12412549 -0.11345179 0.15849699 -0.05795323 0.113313675 0.09843471 0.007897553
0.10653591 -0.09631294 0.029916678 0.0308214 0.034847733 -0.061172 0.13109973 -0.09701655
0.12438659 0.008285545 0.12234784 0.18240106 -0.08945871 0.10347335 0.07525723 0.08775625
0.06266357 0.08773243 -0.07323825 0.13875313 0.01726148 -0.102120385 0.008396804 -0.001527395
-0.024252746 0.0038796014 -0.019433346 0.047405854 0.079586186 -0.087497026 0.032355282 -0.009707162
0.012292294 0.020564938 0.03283638 -0.032749858 -0.09217098 -0.024296468 -0.029928973 0.048295535
-0.017757617 0.035784487 0.06794099 -0.0066708983 0.05398576 -0.020491956 -0.047245827 -0.07268182
-0.06842099 0.06501411 0.011674458 0.06921187 0.039838936 -0.11668404 0.03454473 0.07582606
-0.023299493 0.07259208 -0.104723044 0.07314147 -0.08599365 -0.026958438 0.09116943 -0.0062500304
0.08780035 0.025357053 0.006142765 -0.08327179 0.039489172 -0.053496987 0.07839812 -0.011903219
-0.05663902 -0.0011110161 -0.07647646 0.0442908 -0.012464933 0.024132127 -0.08538074 0.014425523
0.0784446 -0.09043948 -0.08726926 -0.040407978 -0.12756097 -0.10900087 -0.0118224695 -0.05769932
0.09891485 0.03847883 -0.06668051 0.03090904 -0.09181218 0.11489897 -0.09581367 0.0039906157
-0.09280076 0.011294077 -0.061984483 0.08880841 -0.119317286 0.06508989 0.06050204 0.0784928
0.09655408 -0.12805465 0.022599591 0.026597774 -0.078080505 -0.00035092467 -0.11763948 -0.03664482
0.052897617 0.006891854 0.063492626 -0.121330835 -0.025768774 -0.11554917 0.12062229 0.05576877
0.092702605 -0.08842896 0.09211855 0.06178142 0.15354282 0.056270864 -0.04249354 0.017070863
0.015542847 0.08241482 0.09846188 -0.024641009 0.010527579 0.08634827 0.122291274 0.11600811
0.038307037 -0.069788575 0.14291495 0.09987668 -0.004139097 0.01811313 -0.030760745 0.03593036
-0.009998292 0.08978033 0.023424057 0.06685446 0.0009778684 -0.08445693 0.14051723 -0.06430008
-0.08106491 0.09291855 -0.00765688 0.06701731 -0.11686223 0.04316536 -0.086042844 0.12831901
-0.07431925 0.046030015 -0.033728503 0.060160924 -0.017745225 -0.006701523 -0.11232998 0.012813088
0.12743802 -0.050700348 -0.058026616 0.0025856157 0.008284952 -0.005216523 -0.06423248 -0.08943835
0.026791207 -0.09004609 0.10631636 0.09348731 0.0010572628 -0.07784751 -0.047885302 0.04517008

fc.weight f4 [3, 64]
00000000: 192d 2b3e 5c04 cfbd 7018 94bd a65f 65bb
00000010: 3dc7 243e fb98 b2bd 0f0d 2abe ae3f a13d
00000020: 2bae 31be 944a 893d fbc6 efbd f511 de3d
00000030: fff0 01be 7a82 aabd 31c2 4a3e 8a0c c33d
00000040: fa31 edbd 9312 17be 7435 863d 562b 083e
00000050: bca2 05be 7210 7cbd 7915 febd 6260 e23d
00000060: aa18 c53d c761 953d fa21 85bc 60b2 a93d
00000070: a0a9 dd3c 2065 00be 193b b9bd 68e7 ca3d
00000080: 20e5 2a3e e1b4 a33c 2a6a b9bd a206 40be
00000090: a2a8 f6bd 4bfe f5bd 929b 1e3e 15da 053e
000000a0: fc35 1c3e 62b5 1cbe 7df5 a1bc ff8e 66bd
000000b0: e00a b13d 6a36 11be f435 433b 2745 e93b
000000c0: b49a 363d 45c7 3a3d 5b0c d03d 674d e63d
000000d0: 80c6 f23d 22af c6bd 1151 c4bd 2d33 fc3d
000000e0: 9b87 683d 7391 143e 33d9 6bbd f0fa c3bd
000000f0: ace5 55bc 8a24 7abd 6eba b83d eccc 253d
00000100: 22f4 be3c 09fa a03d 619a 84bd 9fa0 18be
00000110: fdc4 16be 627d 0c3e 0504 b0bb 66b0 d13c
00000120: 81f0 40bc 4883 8b3c 2b21 9e3d 14db 0fbe
00000130: c48f d73d d612 ee3d 798b 34bd de39 853d
00000140: bf1d 713d 2f85 d3bd 1f3c e9bd d1ee b6bd
00000150: 1299 3c3a 1a4c 953d 64cd 1ebd b284 80ba
00000160: aa7b 72bc 4406 eabd 1579 bfbd 8984 91bd
00000170: d62d 38bd 9615 49bd ce12 7fbb 5133 d23d
00000180: e9e3 d1bd a110 243e 9813 46bb a4db ad3d
00000190: 872c 083e abb4 c23d 37b3 1dbe f1dc 35bd
000001a0: f2e1 f5bd f102 a5bc 7793 87bd da83 2abd
000001b0: 19a2 f5bd ed37 ccbc e13d d5bb 290e 29bd
000001c0: 97a1 c43d 2bff a8bd 7f8c 43bc 8a9c 8e3b
000001d0: 71ca 6fbd 177c 9d3d 106b 293e 262a a63d
000001e0: 8f21 86bd c020 05be 0661 83bd 129a b13d
000001f0: a9b5 013c 08fb 343d ee8f 0ebd 639d f23d
00000200: fd62 51bc 6f98 183d d894 b83d c7d8 c0bd
00000210: c4d1 91bd 15e2 313d 446a 6bbd f01c 25be
00000220: e4bf 8bbd 4dc1 1cbd a1c8 0bbd da38 843d
00000230: 8b41 8ebd b10f 633d ed1e 433d 1ce6 813c
00000240: 7666 31bc 6738 ea3d 91dd 73bc 088c bfbd
00000250: 5e93 d83d 62dc 213c 6331 603d 39ad ed3b
00000260: 6745 eebb 58f1 903d a38e cfbd 6b80 0ebe
00000270: a5d0 8f3d 0d7f 8e3d c081 b2bd 032b dcbd
00000280: 7ca4 24be a1ce 53bb 47ae 8dbc 377a 1b3e
00000290: 2e78 773a 45ab c03d 8b07 96bd 85e1 84bc
000002a0: e961 84bd e2c5 8abc a631 94bd 5d85 6f3d
000002b0: 4983 21bc 6cc0 f63d b283 043d 1dd0 05be
000002c0: b6ee 8ebd 9e03 90bd 2896 003c ed44 05be
000002d0: 275a 9f3d 0ce3 1a3e 3571 693d a3c6 bcbd
000002e0: 2af1 d9bd 26f3 ae3d 2a70 da3d 3ab1 a13d
000002f0: 06c2 563d b748 5fbd fdaa 303d f320 c33d
0.16716422 -0.10108253 -0.072312236 -0.0034999638 0.16091628 -0.08720585 -0.16606544 0.07873474
-0.17351596 0.06703678 -0.117078744 0.10843269 -0.12689589 -0.08325668 0.1980064 0.09523876
-0.11581798 -0.14753179 0.06553164 0.13297781 -0.1305036 -0.06153912 -0.12406439 0.1105354
0.09623845 0.0729404 -0.016251553 0.082859755 0.027058423 -0.12538576 -0.09044475 0.099074185
0.16688967 0.01998371 -0.09053452 -0.1875253 -0.12043883 -0.12011393 0.15489033 0.13071473
0.15254968 -0.15303567 -0.019770378 -0.056288715 0.08644652 -0.14180914 0.0029786797 0.0071188393
0.04458113 0.045600194 0.101586066 0.11245232 0.11854267 -0.09701373 -0.09585775 0.123144485
0.05676995 0.1450861 -0.057580184 -0.09569347 -0.013055246 -0.061070003 0.09019934 0.04047863
0.023309771 0.078601904 -0.06474758 -0.14905022 -0.14723583 0.13719705 -0.005371573 0.025596809
-0.011776091 0.017030373 0.0772117 -0.14048415 0.10525468 0.116246864 -0.044078324 0.06505178
0.05886626 -0.10328137 -0.1138842 -0.08932269 0.000719444 0.07289906 -0.038770095 -0.0009805171
-0.014799992 -0.11426976 -0.093492664 -0.07105357 -0.044965588 -0.04909285 -0.003892112 0.10263694
-0.102485485 0.16021968 -0.003022408 0.08489159 0.13298236 0.09507116 -0.15400396 -0.04440016
-0.12005986 -0.020143004 -0.066199236 -0.04162965 -0.11993808 -0.024929011 -0.0065076207 -0.04127327
0.09601133 -0.082517944 -0.011935352 0.004352157 -0.058542673 0.07689684 0.16544747 0.08113508
-0.065493695 -0.13000774 -0.0641499 0.08671965 0.007916846 0.044184715 -0.03480523 0.118464254
-0.012779948 0.037254747 0.09012765 -0.09416347 -0.07120088 0.0434285 -0.05747439 -0.1612432
-0.068237096 -0.038270283 -0.03412688 0.06456156 -0.06946095 0.055434886 0.047636915 0.015856795
-0.010827651 0.11436539 -0.0148843685 -0.09352881 0.10574983 0.0098792035 0.0547346 0.0072533158
-0.007271457 0.07077283 -0.10134628 -0.13916175 0.07022218 0.06957827 -0.08716154 -0.10750391
-0.16078371 -0.0032319205 -0.017295016 0.1518334 0.00094402104 0.09407667 -0.073256575 -0.016220817
-0.064639874 -0.016940061 -0.07236032 0.058476795 -0.009857961 0.1204842 0.032352157 -0.1306767
-0.06979124 -0.0703194 0.0078483 -0.13014574 0.07780867 0.15125674 0.05699273 -0.092175744
-0.106417015 0.08542471 0.10665925 0.078951314 0.05243113 -0.054512706 0.043131817 0.09527769

fc.bias f4 [3]
00000000: ce66 c1bc 58cf 233d 8380 ed3d
-0.023608591 0.03999266 0.11596777
