model_cnn.pt (torch, 13361 bytes, 4 tensors)

conv1.weight f4 [32, 4, 3]
0.16960175 -0.08772249 -0.017068556 -0.27304536 0.21979772 -0.20678984 -0.008799583 0.04487145
-0.25045204 0.011041918 -0.21157335 -0.052687444 -0.24671888 -0.21219422 0.24299845 -0.052922346
-0.15616935 0.03341403 0.26418906 -0.09932513 -0.21575893 -0.2291338 -0.12876947 0.04096718
-0.031125424 0.22564803 0.2124341 0.12973338 -0.23336658 -0.14551769 0.077415526 0.2169345
0.42825392 0.17474122 0.33894107 -0.020280262 -0.17557302 0.364643 0.18295194 0.19274822
0.12528268 -0.03978671 -0.13553648 -0.25460222 -0.20238143 -0.2172972 0.22623248 -0.24036619
0.2714599 0.03245793 -0.19182368 -0.14279902 0.17592455 -0.07816999 0.4151834 0.3883291
0.35689518 -0.0054618 0.089712895 0.293358 -0.2659385 0.14768884 0.010588072 0.06786755
-0.033475254 0.27292222 0.08394757 0.019609291 0.15572453 -0.0050749048 0.22373542 -0.09158973
0.19547439 -0.18051201 -0.11000193 0.24538547 0.31157035 -0.17921397 -0.20755239 -0.21620505
-0.23782717 -0.053957954 -0.2748535 0.09338063 -0.17842315 -0.18047448 0.13523012 0.005702425
0.15997873 -0.09004487 -0.28497398 -0.19306512 -0.18032423 0.1109928 0.22601596 0.19136496
-0.16474378 0.12155582 0.089501455 -0.19697809 -0.006480943 -0.27867547 -0.101475365 0.16387846
0.023358198 0.11736771 0.00046963838 -0.022318948 -0.04773142 0.04216541 0.2638704 -0.17345664
-0.22779004 -0.23951963 -0.05324927 0.20760903 0.14915837 -0.072000906 0.1135751 -0.2214776
0.2347975 0.028583841 -0.14311801 -0.22293858 0.061554726 -0.26191336 0.18383624 -0.0020346874
-0.0076482147 0.31180564 0.032426614 -0.037042502 -0.28105655 -0.19353063 -0.06695105 0.24781594
-0.2717327 -0.23054245 0.1422687 -0.07737412 -0.0096184 0.091263145 0.19308065 -0.16168469
-0.28619266 -0.10083691 0.1739771 0.19670306 0.15121263 0.025659218 -0.06375988 0.03999753
0.38678998 0.14292212 0.033748847 0.17666732 0.046165694 0.035457455 0.30665195 -0.21884286
0.28698456 0.27120978 0.052621983 0.12027109 -0.07074261 -0.34534672 0.19917741 -0.18923996
0.20043875 0.041926093 0.035600554 -0.023772798 -0.1984404 0.13240385 0.053392544 -0.25370586
-0.1802429 0.13687326 -0.1149016 -0.22963516 0.11420354 -0.15415844 -0.12967588 0.29204595
0.12725744 -0.001185393 -0.16938555 -0.122925185 -0.049487073 0.03728622 -0.0005082127 -0.2759532
0.047227506 -0.1956991 -0.09361683 0.21008149 -0.0044948393 0.08648091 -0.23748085 -0.22571181
-0.27383453 0.028835779 -0.17164353 -0.14509803 0.24041693 0.26914796 -0.08795838 0.29850703
-0.058067277 -0.064734705 -0.2343445 -0.15418169 -0.13915361 -0.28972194 -0.004750231 -0.25324032
-0.17698774 0.088856824 -0.0654162 -0.17449531 -0.1003124 -0.2495795 0.29355326 0.08847645
-0.01931638 0.34970948 -0.14888701 0.13077669 0.14209916 -0.10607829 0.16990937 -0.03442792
0.21010168 -0.19234173 -0.10928524 -0.09944096 0.3280355 0.14113478 0.2909785 0.0478436
-0.25430903 0.17897296 0.14506301 0.114784166 -0.24638937 0.07843105 0.37228608 0.3563971
-0.037531022 0.32508886 -0.013027402 0.20791566 -0.04983021 -0.25178513 0.02785594 0.053070977
00000000: 15ac 2d3e d9a7 b3bd 5bd3 8bbc 9acc 8bbe
00000010: a712 613e b7c0 53be 202c 10bc 20cb 373d
00000020: 403b 80be 29e9 343c afa6 58be cace 57bd
00000030: e0a3 7cbe 7149 59be 96d4 783e 1ac5 58bd
00000040: dcea 1fbe 26dd 083d ca43 873e f96a cbbd
00000050: e9ef 5cbe 0da2 6abe 25dc 03be 34cd 273d
00000060: bffa febc 4710 673e 5388 593e d4d8 043e
00000070: a6f7 6ebe 9702 15be 088c 9e3d 1424 5e3e
00000080: 1944 db3e 5def 323e af89 ad3e cb22 a6bc
00000090: 6ac9 33be 7db2 ba3e c157 3b3e ca5f 453e
000000a0: 1a4a 003e 64f7 22bd 13ca 0abe 395b 82be
000000b0: 143d 4fbe 2883 5ebe 7da9 673e 8e22 76be
000000c0: cbfc 8a3e 9bf2 043d 6d6d 44be e839 12be
000000d0: 9125 343e 9617 a0bd eb92 d43e 12d3 c63e
000000e0: f7ba b63e e6f8 b2bb 65bb b73d 0533 963e
000000f0: 1729 88be be3b 173e 9879 2d3c 24fe 8a3d
00000100: 591d 09bd 76bc 8b3e b4ec ab3d aaa3 a03c
00000110: 4076 1f3e 634b a6bb e61a 653e 6593 bbbd
00000120: 702a 483e 24d8 38be b148 e1bd 5446 7b3e
00000130: 2686 9f3e de83 37be 9d88 54be db64 5dbe
00000140: f788 73be 0403 5dbd 99b9 8cbe 583e bf3d
00000150: 8fb4 36be 4dce 38be c479 0a3e 68db ba3b
00000160: 77d1 233e 7269 b8bd 1ce8 91be ddb2 45be
00000170: eaa6 38be 3150 e33d ba70 673e 2df5 433e
00000180: 98b2 28be 42f2 f83d 8a4c b73d a0b4 49be
00000190: 175e d4bb 8dae 8ebe 51d2 cfbd c1cf 273e
000001a0: b159 bf3c 7b5e f03d cc39 f639 3ad6 b6bc
000001b0: 0582 43bd a3b5 2c3d 051a 873e 9e9e 31be
000001c0: cb41 69be a244 75be e81b 5abd 7697 543e
000001d0: f9bc 183e 3675 93bd 109a e83d 06cb 62be
000001e0: c16e 703e a928 ea3c 878d 12be 034a 64be
000001f0: cf20 7c3d 8219 86be 913f 3c3e 6458 05bb
00000200: e09d fabb fda4 9f3e c5d1 043d e1b9 17bd
00000210: a5e6 8fbe e52c 46be a21d 89bd 76c3 7d3e
00000220: 8c20 8bbe 5213 6cbe e3ae 113e 5376 9ebd
00000230: 7e96 1dbc 2ce8 ba3d efb6 453e ac90 25be
00000240: d887 92be 9583 cebd 0e27 323e 876c 493e
00000250: 7cd7 1a3e 4833 d23c 8a94 82bd 73d4 233d
00000260: 5609 c63e 2d5a 123e 3b3c 0a3d 47e8 343e
00000270: 3d18 3d3d d63b 113d 7c01 9d3e 5818 60be
00000280: a4ef 923e 02dc 8a3e 268a 573d b050 f63d
00000290: 80e1 90bd 49d1 b0be 2af5 4b3e 1fc8 41be
000002a0: d13f 4d3e b2ba 2b3d e3d1 113d 2cbf c2bc
000002b0: f633 4bbe e094 073e 24b2 5a3d bce5 81be
000002c0: 9891 38be 8128 0c3e 8851 ebbd 7b25 6bbe
000002d0: 8ce3 e93d b6db 1dbe c1c9 04be 0c87 953e
000002e0: c64f 023e 305f 9bba 6873 2dbe 33c0 fbbd
000002f0: f5b2 4abd 6fb9 183d 9439 05ba bd49 8dbe
00000300: a171 413d 5865 48be 2eba bfbd 9a1f 573e
00000310: 7249 93bb e71c b13d 2e2e 73be ff20 67be
00000320: 0a34 8cbe 0339 ec3c 52c3 2fbe 9494 14be
00000330: db2f 763e c3cd 893e 8623 b4bd ead5 983e
00000340: f4d7 6dbd a193 84bd 01f8 6fbe cee1 1dbe
00000350: 497e 0ebe 6f56 94be d3a7 9bbb b7a8 81be
00000360: 463c 35be 91fa b53d eef8 85bd e6ae 32be
00000370: 9670 cdbd c591 7fbe 9d4c 963e 2433 b53d
00000380: 633d 9ebc 1f0d b33e d675 18be 53ea 053e
00000390: 7182 113e 933f d9bd b9fc 2d3e 4a04 0dbd
000003a0: e524 573e 3bf5 44be f1d0 dfbd b4a7 cbbd
000003b0: 45f4 a73e a385 103e 22fb 943e a7f7 433d
000003c0: cb34 82be b044 373e 668b 143e f613 eb3d
000003d0: 7f4d 7cbe 75a0 a03d 489c be3e ae79 b63e
000003e0: 21ba 19bd 0c72 a63e e270 55bc d8e7 543e
000003f0: c31a 4cbd fbe9 80be 2432 e43c f460 593d

conv1.bias f4 [32]
-0.10612419 -0.09550841 -0.22457498 -0.1199103 -0.1539769 -0.07843509 0.15874831 0.18876004
0.22015509 -0.09698017 0.08210196 -0.037512522 -0.17844689 0.05535764 0.21148466 0.15164533
0.2965533 0.13716055 0.2493223 -0.024573661 0.2225586 0.11322209 0.04440321 -0.046588063
0.24641961 0.119517826 -0.21372654 0.27512208 0.015239593 0.118698984 0.0484611 -0.16151729
00000000: a457 d9bd ea99 c3bd fcf6 65be 8893 f5bd
00000010: 1fac 1dbe 94a2 a0bd eb8e 223e 504a 413e
00000020: 5670 613e 8a9d c6bd 1325 a83d bba6 19bd
00000030: c8ba 36be b1be 623d 6f8f 583e ea48 1b3e
00000040: d6d5 973e d173 0c3e 584e 7f3e b44e c9bc
00000050: 67e6 633e fce0 e73d 24e0 353d 20d3 3ebd
00000060: 6c55 7c3e c3c5 f43d 21db 5abe cddc 8c3e
00000070: 7caf 793c 7418 f33d 257f 463d ca64 25be

fc.weight f4 [3, 768]
-0.015622432 -0.0166638 -0.008274888 -0.031587888 0.012590824 0.021382978 0.025909219 -0.0023020243
0.011439411 0.0070556994 0.012242304 0.020511178 0.033601236 0.0051610577 0.00449887 -0.022543354
0.023764784 0.035808574 0.029535161 0.02318341 0.028315092 0.016227787 0.004913019 -0.022263234
0.031137506 -0.016769277 -0.02604601 0.034944423 -0.03535587 0.029545443 0.01266836 0.022376021
-0.02478075 -0.019539077 0.017823542 0.0016712297 -0.019705726 0.024137909 -0.0005457992 -0.008911979
-0.000601264 -0.025301283 -0.009369583 -0.0046766205 -0.008150477 0.0028354435 0.03525431 0.007667119
0.10685204 0.086518094 0.11004851 0.12454761 0.13892217 0.11010153 0.08782428 0.111156926
0.10733193 0.14149256 0.12900129 0.10325354 0.14160372 0.13323224 0.11324556 0.14644809
0.12497657 0.1352004 0.13333562 0.10636739 0.09728 0.1397067 0.12635829 0.10913226
-0.10059894 -0.12607804 -0.10356515 -0.08228928 -0.022419889 -0.053829838 -0.08929099 -0.05084417
-0.13055032 -0.11083677 -0.09359022 -0.053068835 -0.09609013 -0.1027188 -0.05651509 -0.111360766
-0.12265737 -0.110419735 -0.106877886 -0.09251422 -0.11742223 -0.11111274 -0.11644349 -0.106631406
0.09228759 0.09283112 0.13585843 0.12777275 0.1286877 0.08782492 0.14078848 0.13476847
0.16387174 0.14588083 0.13602485 0.11168805 0.12525268 0.14050654 0.10141376 0.09822451
0.12761651 0.12152161 0.11216281 0.16311853 0.1488679 0.13253117 0.11857037 0.09364297
0.007512624 0.0061195283 0.033499535 -0.012809019 0.04009508 0.03195491 0.040912673 -0.031132312
0.0038958078 -0.019270096 -6.8103574e-05 -0.005914178 0.000701341 0.051624294 0.03226848 -0.019104611
0.03548851 -0.013715424 0.017694999 -0.025455602 -0.0040383213 0.00719803 -0.010578631 0.037865713
-0.07321673 -0.05143168 -0.07519573 -0.064698346 -0.03455461 -0.07230532 -0.043354686 -0.038785927
-0.10465771 -0.071378425 -0.07396484 -0.092903435 -0.08468415 -0.09393974 -0.09133408 -0.08837201
-0.022138821 -0.059616663 -0.044063784 -0.0609621 -0.09075531 -0.045791894 -0.08566985 -0.018937841
-0.011072391 -0.008862776 0.042436678 -0.012919249 0.021653831 0.04012368 0.0124231195 0.018571578
-0.008435511 0.04243539 -0.009747057 0.036673814 -0.020651279 0.027045613 -0.0075474465 -0.017776694
0.044867143 -0.009355103 -0.011043861 -0.01784016 0.0063725444 -0.005163011 -0.02038517 -0.011897082
0.03396324 0.047803886 0.011251554 -0.0057490235 0.002900283 -0.0013844005 0.02325216 0.030505832
0.012481593 0.040503837 0.012595093 -0.010391875 0.011985605 0.00014387108 0.0053456933 0.026143515
-0.02047859 0.01717616 -0.0012355628 0.01078484 -0.024090193 0.0039255046 0.018738974 0.019619815
0.017164377 0.024078365 -0.025293987 0.015743174 -0.016404096 -0.016143782 0.024243679 -0.012036933
-0.030967232 0.020496879 -0.028171727 0.014551266 -0.0029178404 -0.013507179 0.024146996 -0.02018741
-0.028313909 -0.0062378542 0.010197864 0.02223887 -0.00020902739 0.0226152 0.022869091 0.005412357
0.112254746 0.052369345 0.06255901 0.12229437 0.06708756 0.09302722 -0.005415865 0.065205336
0.019574374 0.05104097 0.10168965 0.1172096 0.07395829 0.055003285 0.032523062 0.05688781
00000000: 3bf5 7fbc 8682 88bc 6593 07bc 4d62 01bd
00000010: be49 4e3c 5b2b af3c 923f d43c 8fdd 16bb
00000020: 5e6c 3b3c 7f33 e73b f293 483c 0f07 a83c
00000030: 73a1 093d 171e a93b 426b 933b d7ac b8bc
00000040: 5dae c23c 03ac 123d b9f3 f13c 22eb bd3c
00000050: 0df5 e73c 23f0 843c 64fd a03b 6361 b6bc
00000060: 1514 ff3c b95f 89bc 715e d5bc e221 0f3d
00000070: 51d1 10bd 4909 f23c f48e 4f3c eb4d b73c
00000080: 0001 cbbc 6a10 a0bc ad02 923c 2a0d db3a
00000090: e76d a1bc ddbc c53c f713 0fba 8d03 12bc
000000a0: 259e 1dba a344 cfbc e182 19bc 563e 99bb
000000b0: 9489 05bc d9d2 393b d366 103d 753c fb3b
000000c0: 3ed5 da3d 6630 b13d 1d61 e13d d112 ff3d
000000d0: 9d41 0e3e e97c e13d 37dd b33d 3ea6 e33d
000000e0: d8d0 db3d 6de3 103e ea18 043e 9876 d33d
000000f0: 9100 113e 086e 083e 4aed e73d 7df6 153e
00000100: b7f3 ff3d f971 0a3e 2289 083e 25d7 d93d
00000110: bd3a c73d 460f 0f3e 1164 013e bc80 df3d
00000120: d106 cebd 9a1a 01be f719 d4bd 4887 a8bd
00000130: eaa9 b7bc ad7c 5cbd 32de b6bd fa41 50bd
00000140: fcae 05be 63fe e2bd 3bac bfbd b55e 59bd
00000150: e7ca c4bd 3c5e d2bd 5e7c 67bd 1d11 e4bd
00000160: ca33 fbbd be23 e2bd cbe2 dabd 1878 bdbd
00000170: 117b f0bd 148f e3bd ed79 eebd 9161 dabd
00000180: 4701 bd3d 3e1e be3d 791e 0b3e dcd6 023e
00000190: b5c6 033e 8ddd b33d db2a 103e bf00 0a3e
000001a0: fecd 273e c961 153e 194a 0b3e b4bc e43d
000001b0: 3d42 003e f2e0 0f3e 04b2 cf3d ef29 c93d
000001c0: e7ad 023e 52e0 f83d 9eb5 e53d 8b08 273e
000001d0: d470 183e 40b6 073e 06d5 f23d e3c7 bf3d
000001e0: 752c f63b 5386 c83b cf36 093d ebdc 51bc
000001f0: bd3a 243d 27e3 023d 0c94 273d 3109 ffbc
00000200: cf50 7f3b 52dc 9dbc d4d2 8eb8 b9cb c1bb
00000210: 33da 373a ff73 533d f42b 043d 4681 9cbc
00000220: 665c 113d a8b6 60bc 1af5 903c 4488 d0bc
00000230: e553 84bb 74dd eb3b ff51 2dbc 1419 1b3d
00000240: a7f2 95bd 06aa 52bd 3800 9abd 9180 84bd
00000250: 2289 0dbd d014 94bd af94 31bd fedd 1ebd
00000260: c856 d6bd da2e 92bd e17a 97bd 2844 bebd
00000270: e26e adbd 7a63 c0bd 5d0d bbbd 62fc b4bd
00000280: 795c b5bc 9a30 74bd 3a7c 34bd 65b3 79bd
00000290: ecdd b9bd 4890 3bbd ad73 afbd 8823 9bbc
000002a0: f968 35bc 2d35 11bc 15d2 2d3d 42ab 53bc
000002b0: 6063 b13c ba58 243d 578a 4b3c 6c23 983c
000002c0: 1935 0abc bbd0 2d3d 1fb2 1fbc 4837 163d
000002d0: df2c a9bc c38e dd3c 9250 f7bb 6ea0 91bc
000002e0: 9cc6 373d 2546 19bc 4ff1 34bc 8725 92bc
000002f0: c7d0 d03b 7a2e a9bb cdfe a6bc fbeb 42bc
00000300: 0a1d 0b3d 02ce 433d 7058 383c 4e62 bcbb
00000310: ad12 3e3b c674 b5ba 507b be3c 5ee7 f93c
00000320: 987f 4c3c 5ae7 253d a65b 4e3c af42 2abc
00000330: 455f 443c 19dc 1639 ed2a af3b ed2a d63c
00000340: b7c2 a7bc 05b5 8c3c 9cf2 a1ba e6b2 303c
00000350: cc58 c5bc 85a1 803b 7a82 993c bcb9 a03c
00000360: 4f9c 8c3c fe3f c53c 5635 cfbc d4f7 803c
00000370: e261 86bc f73f 84bc ae9a c63c 8e36 45bc
00000380: feae fdbc 12e9 a73c 65c8 e6bc 6f68 6e3c
00000390: 3d39 3fbb 374d 5dbc eccf c53c 1160 a5bc
000003a0: 92f2 e7bc ea66 ccbb f114 273c 4a2e b63c
000003b0: 5d2e 5bb9 8343 b93c f657 bb3c 245a b13b
000003c0: d1e5 e53d 3d81 563d f01e 803d 7875 fa3d
000003d0: 3465 893d 0e85 be3d 9277 b1bb 608a 853d
000003e0: 705a a03c 5610 513d aa42 d03d 960b f03d
000003f0: 7277 973d 204b 613d e736 053d 3103 693d

fc.bias f4 [3]
-0.019095466 -0.0014477057 0.036582362
00000000: 186e 9cbc f1c0 bdba 63d7 153d
